FINAL-PROJECT-main/TrainData.pth (torch, 13660 bytes, 6 tensors)

l1.weight f4 [8, 210]
00000000: 7e1b 783e 34f7 74bf 8c5d a63e d0e7 b6bd
00000010: fa9b 8a3f 242d 7a3e eecc 59be 2c4f 443f
00000020: 8252 e73e 884b 5b3f 0dce c63d ee8e c7bd
00000030: 09fb 093f a972 e83e a4e0 e63e 6cf9 4b3f
00000040: 4865 9d3f 587f 713f 3424 85be 985c 8d3e
00000050: 48ef 373f 4113 923f 0593 b53f 7275 24bf
00000060: 4b46 a73f a934 4d3f 9ac7 91be aafb debd
00000070: 45a1 ba3d e7ef 213f fe88 4f3f f144 873d
00000080: 0a8e 4d3f 993f a93f b833 46be a1e1 c8bc
00000090: bbee 2d3f 6ff8 cc3e a9fd cc3f 066a 973e
000000a0: 3cad 183f a495 d8be 90fa c33f c172 f33e
000000b0: 5184 45be 39bf b53e 1e60 c03f 998e bbbe
000000c0: 08c9 55bf ccb1 42be 8dac 613f 8abc 25be
000000d0: 6020 4cbf cdc2 24bf c036 c43e a54f 8cbe
000000e0: bd7c 4b3f e232 c43f 3cd9 393f d49f 48be
000000f0: 56fd 963e ea36 443d dff0 483f 1023 eb3e
00000100: bbca 04be f28c 1e3f 9310 6bbf abcf 053e
00000110: 832c 6cbf 2120 8abd af3c 3ebf b369 c53f
00000120: 37ee e13e b54c 933f 943d 903f f5af f7be
00000130: e1a9 973f f3c5 db3e 100f 20bf 875c 05be
00000140: 552d 33be 3e50 94bd ab70 72be 9d61 a6be
00000150: 107a a2be 8a18 a2be 9834 bd3f 981d 9a3f
00000160: 40d4 d13e e465 c73e 8817 993f 6621 8f3f
00000170: 6a41 533f ba2c 803e 4862 68bf d6b5 cdbf
00000180: 03a9 7d3f f31d c03e 09dd 903f 08c1 0c3f
00000190: a1ba 2c3e e7ed 223f 691a f33d 79d5 e93f
000001a0: 151b fd3e 8bb1 593f 3a85 acbf 77c6 823e
000001b0: 2b17 2fbf ef79 ffbd 6477 d2be b77e 613e
000001c0: 0284 b73f 4349 143f 236e 833f 2b27 a5bf
000001d0: 8a2e 27bf 2e91 03bf 41bf 5bbf 3b7b 58be
000001e0: a39e 9c3f f878 e83e c1eb e43e 5861 66be
000001f0: eccb 2fbf 0808 53be 8438 8d3f 0b64 bc3f
00000200: 7927 093e f82f 173f 2420 573f e8e5 6c3f
00000210: ebdb 003f ea5d a33f c4ae 6abd 5e62 903f
00000220: cb5a a3bf 8a83 d5be c9ef 34bf 49af 17bf
00000230: ec6a 083f f03a 28bf 3919 00be 8f13 5ebe
00000240: f748 d53f b4cb eebc f5f8 e43e 1a78 0140
00000250: 8998 88bd fffb a33f 23b9 58bd eb0a 96be
00000260: beb3 32bf 9eaa f13e 0096 d73f 8897 bc3f
00000270: 1241 25bf 53d4 123f 7ef7 85bf 2bd5 babd
00000280: 3636 98bf 1864 27be ea44 033e d894 863d
00000290: d851 a0bc ac6a 5abe aee8 893f ac56 44be
000002a0: f1a7 21bf 861d 8abe 1823 85bf 1439 cbbe
000002b0: fda7 9d3e 27df 893e adb0 ef3d 21bb acbf
000002c0: 3cdb 173f 7a92 7b3f d6a0 1a3f e5fd 153f
000002d0: 084c 72bf bd0f d13e 9812 233f 74b4 71be
000002e0: e5e5 f63e ffcb 0d3e f783 c13f 0a15 f03e
000002f0: ab25 df3e 032e 71bf 08d6 463f fc30 073f
00000300: b158 c53d de6e 543d c387 8cbe 8757 293f
00000310: 67fd 973f 0a65 983e 9808 15bf 9b52 3f3f
00000320: 2eb5 cb3e 31ef 533f 0dec 043f f6d6 00be
00000330: aa0c cabe a4f8 d7bf 22c0 303f e5b6 89bd
00000340: 0fed b03f a1ba 113f 3a9d 573e c324 6abe
00000350: 532b 283f 968d d43c ccc1 793f 8ae9 173f
00000360: 773d 1c40 cd80 353f 9280 823e c43b b9bd
00000370: 8963 003f 4764 df3e ed16 76bf e034 e93e
00000380: 4fe4 593f 1c0f 873f 43e3 ae3f 3e60 1a3f
00000390: 7701 1bbe 8f3e 89bf af5d da3e 881c a23f
000003a0: a3bc 31bf 46f5 893f e860 debe 1653 763f
000003b0: 0f00 453c fe23 123e 4568 233f 1347 5fbf
000003c0: 01b9 84bf 2613 63bc 0c6a 67bf d7d8 1bbe
000003d0: 6c95 eebe 4310 843f 07ea ed3e c231 ed3d
000003e0: 3795 88be bf1a 363f 9474 693f de71 f4bd
000003f0: 2858 95bd a8e5 d7be 58d3 273f 041e 8bbf
0.24229237 -0.956897 0.32493246 -0.089309335 1.082885 0.24431282 -0.2126958 0.76683307
0.45180136 0.85662127 0.0970727 -0.097440585 0.53898674 0.4539998 0.45093262 0.7967746
1.2296534 0.94334936 -0.26004183 0.27609706 0.7184949 1.1412126 1.4185492 -0.6424171
1.3068327 0.8015848 -0.28472596 -0.10887845 0.09112791 0.63256687 0.8106841 0.066049464
0.8029486 1.3222533 -0.19355667 -0.02452165 0.679424 0.4003329 1.6014911 0.29573077
0.59639335 -0.42301667 1.5310841 0.47548488 -0.19288756 0.35497454 1.5029333 -0.3663223
-0.83509874 -0.19013137 0.88153917 -0.16185203 -0.797369 -0.6435974 0.3832302 -0.27404514
0.7948721 1.5328028 0.725971 -0.1959222 0.29490155 0.047903933 0.7849254 0.45925188
-0.1296796 0.61933815 -0.91822165 0.130675 -0.9225542 -0.06744409 -0.74311346 1.5422882
0.44127056 1.1507784 1.1268792 -0.48376432 1.1848718 0.4292446 -0.62522984 -0.13023578
-0.17497762 -0.072418675 -0.23675792 -0.32496348 -0.3173375 -0.31659347 1.4781675 1.2040281
0.40982246 0.38944924 1.1960306 1.1182067 0.8252169 0.25034124 -0.90774965 -1.6071117
0.99086016 0.3752285 1.1317455 0.5498204 0.16868068 0.6364426 0.11870272 1.8268272
0.49434724 0.85036534 -1.3478158 0.25542042 -0.68394727 -0.12474429 -0.41106713 0.22020994
1.433716 0.5792429 1.0267986 -1.2902578 -0.6530539 -0.513934 -0.85838705 -0.21140759
1.2235912 0.45404792 0.44711116 -0.22498071 -0.68670535 -0.20608532 1.1032872 1.4718031
0.13393964 0.5905757 0.8403342 0.9253831 0.5033557 1.2763035 -0.057295576 1.1280019
-1.2762083 -0.4170192 -0.70678383 -0.5925184 0.5328815 -0.6571493 -0.12509622 -0.21687149
1.6662892 -0.029149868 0.4472119 2.0229554 -0.06669719 1.2811278 -0.052910935 -0.29305205
-0.69805515 0.47200483 1.6842651 1.4733744 -0.64552414 0.5735523 -1.0466154 -0.0912269
-1.1891544 -0.16346776 0.12819257 0.065713584 -0.019570276 -0.21329755 1.0774133 -0.19173688
-0.63146883 -0.2697565 -1.0401335 -0.39691985 0.30792227 0.26928064 0.1170362 -1.3494607
0.593189 0.9827038 0.60401666 0.5859054 -0.94647264 0.4083232 0.63700247 -0.23603994
0.4822227 0.1384735 1.5118397 0.46891052 0.43583426 -0.94210833 0.77670336 0.5280912
0.09636057 0.051863544 -0.27447328 0.6614918 1.1874207 0.29764587 -0.5821624 0.7473542
0.39786667 0.8278685 0.51922685 -0.12582001 -0.39462787 -1.6872754 0.6904317 -0.067243375
1.3822345 0.569254 0.21056071 -0.22865586 0.6569111 0.02594642 0.97561336 0.5934073
2.4412515 0.7089966 0.25488716 -0.090446025 0.5015188 0.43631193 -0.9612873 0.45548153
0.85113996 1.0551486 1.3663105 0.60303104 -0.15137278 -1.0722216 0.426496 1.2664957
-0.6942846 1.0777977 -0.4343331 0.9622053 0.01202394 0.14271542 0.6383098 -0.87217826
-1.0368959 -0.013859546 -0.9039619 -0.15219437 -0.46598375 1.0317463 0.4646761 0.11581756
-0.26676342 0.7113456 0.9119351 -0.11935781 -0.07292205 -0.421674 0.6555686 -1.0868535

l1.bias f4 [8]
00000000: 1bad 1c40 8fde 3740 003b ac40 09fd 9f3f
00000010: e3cb 1d40 0768 ab3f 2b29 af3f 1a7b 1340
2.4480655 2.872959 5.382202 1.2499095 2.4655693 1.3391122 1.3684438 2.3043885

l2.weight f4 [8, 8]
00000000: 0115 0340 cabf 8b40 a717 7c3f bb72 22c0
00000010: 0e45 3940 5674 6840 485d 593f 43be 713f
00000020: 337a c240 bbf1 1a3f da2d c73f 954d 703f
00000030: c670 2e3f 9e72 d9bf 6c83 ee3e d16f 1c40
00000040: 3eb4 f33f 62ff 1440 4acd 1440 6d92 e13f
00000050: b2aa 7840 770b 173e c1b7 703f c7b7 6c3f
00000060: 5ec6 9abf baf5 2740 9873 0940 6a35 9040
00000070: d7d3 01c0 37e2 83be 952c 0f40 d160 0040
00000080: 19f4 a9be 1e6b e9bd 4099 103e b0a3 f2bd
00000090: 0ce6 2fbe 3c87 65be 5162 933e 4361 bdbe
000000a0: 7ad9 b53f f2da 3240 0841 2940 8624 3c40
000000b0: 78d8 a740 5a19 62bf 634e c8bf 287a b1bd
000000c0: e705 d23e 2a0a 583f 7cfe 2d40 efbb 5ebf
000000d0: 3d1f 9bbf f352 783e d914 8abf 0f33 5a40
000000e0: 7f96 dc3f 6124 d6bf a2e3 3940 b8fe 6a3f
000000f0: 4bdd 4f40 2da3 6940 cd18 8b40 1bed 6440
2.048157 4.3671618 0.9847359 -2.5382526 2.8948398 3.6321006 0.8490796 0.9443094
6.077417 0.605251 1.5560868 0.9386838 0.6814083 -1.6988103 0.46584642 2.4443247
1.903938 2.3280873 2.3250299 1.7622811 3.8854184 0.14750467 0.94030386 0.9246792
-1.2091787 2.624373 2.1476803 4.5065203 -2.0285547 -0.25758526 2.237096 2.0059092
-0.33194044 -0.11397384 0.1412096 -0.11847627 -0.171776 -0.22414869 0.28785947 -0.36988267
1.4206994 2.7946134 2.6445942 2.9397292 5.2451744 -0.88319933 -1.5648922 -0.086658776
0.41020128 0.8439051 2.7186575 -0.87005514 -1.2118908 0.24250393 -1.0787612 3.4093664
1.7233428 -1.6729852 2.9045186 0.9179492 3.2478817 3.6505845 4.3467774 3.5769718

l2.bias f4 [8]
00000000: bf15 ca3f fa08 503f 8d44 b83f 6c11 a83f
00000010: ee0b 89be 3019 e23f 59f5 4d3f d143 b83f
1.5787886 0.812637 1.439592 1.3130317 -0.26766914 1.7663937 0.80452496 1.4395696

l3.weight f4 [29, 8]
00000000: 8e16 683f 77f8 e3bf e8ab ecbf 058b 123f
00000010: 4eb7 363e 349c 9abe 901f dbbd 9a75 3ec0
00000020: ad32 733f 3339 05bf 5bff 46bf c2ba 6abf
00000030: 009a 07bb 310e 68c0 4783 8ec0 9f48 3d3f
00000040: da90 b5bf 262c b53e daa0 58bf f539 56c0
00000050: 93f8 acbd c01d a1be fc79 9bbe 20b4 99bf
00000060: db6c d1bf 58e7 1fbf 070f b5bf 39ab ab3f
00000070: 89f5 9e3d 2f37 783c dfa7 ae3e 622c 58c0
00000080: 2d65 b3bf 206a c83c 599d 55bf 847e 96be
00000090: a067 0fbc a963 6d3f c0eb 0cc0 c72b 52c0
000000a0: 1e47 913f 2a45 57c0 fa1e 163e f067 a0bf
000000b0: 70d5 74be 2f23 163f bef2 0ac0 990b 2dc0
000000c0: fe51 253f 9d8f 38c0 10c6 19bf 8cb3 2e3f
000000d0: bdd1 9bbe 9ae8 3bc0 d92e a6bf 579e a9be
000000e0: 1097 a2bf 46d2 58c0 5a7a abbe 4cea 9a3f
000000f0: 2b39 8e3e 1b7b a63f b805 1ec0 be9b 1fc0
00000100: 0ee4 15c0 b88d 51c0 849c babe d217 2bbf
00000110: cc31 d03d 69ef 983f 6fa3 27c0 d8fb 36be
00000120: 367f 06c0 aba1 b8bf 5578 2abf 0bef efbe
00000130: 33c3 64bd 2517 7fbe 8fdc ab3e af86 b1bf
00000140: 08c2 833e 8e4c 293f 2af3 57c0 9a46 5cbf
00000150: 4ee8 9a3e 0516 a3bf 1a52 a63e 9576 9fbf
00000160: 9780 3f3e 8f69 8dc0 b49d 67bf 0439 603f
00000170: d2d1 543e 259e 953d caee 45c0 4484 01bf
00000180: d914 50c0 cae1 1dc0 0de1 0dbf 9bbc 633f
00000190: d085 983d 6e3d bbbf d2bb 533e 70aa f83d
000001a0: 082b 73c0 e1f5 7b3f d813 9cbf b7ee e23d
000001b0: 3a4b 233e 3c35 12bf ca2e 58bf c8f1 93bf
000001c0: 0d47 2c3c 3303 febd ffad 71bf 1310 dbbf
000001d0: 02d8 aebe 98cb 89c0 1c4f a23e 86f3 ef3d
000001e0: d478 2cbe 2062 46bf 7676 c8bf e7e1 8fbf
000001f0: 9d8b 983e 473f c53e 2b4b 35c0 8673 98bf
00000200: b0ce 07c0 2625 403f 3635 d1be a65d cdbe
00000210: e878 343d 2707 5dc0 59ef 56c0 e965 523f
00000220: 14c2 cabf 7eef 38c0 bc9d c5be 7231 933f
00000230: 10f3 a63c 8a8c 26c0 7f40 59c0 e9ed 9b3f
00000240: 9c94 9cbf 90cf edbe b733 e0bf b125 9ebd
00000250: ef70 ea3d 45c8 d2bf 9c87 9fbf cbe8 6fbc
00000260: d3bb 19bf 6635 00bf 35e7 07c0 c87e 39c0
00000270: bc7b a1bd 001c 88bf c2a7 d9be a72f e13e
00000280: b108 843e 3768 8e3e f5d0 aebf 3657 5cc0
00000290: 705f e73d e190 1abf 75e7 87c0 087c d43b
000002a0: b387 43c0 3ac0 ca3e e590 6dbf 198e 7abf
000002b0: 33da 9c3e 4b60 e0bd dfd7 76c0 ad3d 953d
000002c0: d70f 0a3f bf20 6ec0 6746 00bf c526 12c0
000002d0: 3df3 913e ab51 fcbf 9dc7 49bf 5c4c 3a3f
000002e0: 9d41 04bf 4828 d8bf 99ce 19c0 60cb 3f3e
000002f0: e76a 07bd 194f d2bf 97e4 4f3f 5001 d3be
00000300: a2cb 3a3f fd4c 8ec0 57b7 fcbf b999 eebe
00000310: 232f 9dbd f459 253e aaa8 e93c 99a6 22bf
00000320: 27f6 a3be e72c be3d 5bd2 f7be 66dd 9bbf
00000330: d74e 87be 958d 95be bac0 1cbe e527 64c0
00000340: f95e 56bf 88ad 22c0 5e08 92bf 098b d8bf
00000350: 30fa cabd c7ec 5b3c 6eb0 72c0 a7e4 853f
00000360: 1c35 53c0 4779 923e 4956 24bf 991c dbbe
00000370: 2e46 7f3e 6439 0cc0 d0ff 053f 59e7 c5be
00000380: 29f1 b03f 12a2 58c0 0832 87bf 8093 09c0
00000390: 393b 8c3e 0761 5ebc 122c 6fc0 dc21 e2bc
0.90659416 -1.78102 -1.8489962 0.57243377 0.17843363 -0.301973 -0.106993794 -2.9759278
0.949992 -0.52040404 -0.7773339 -0.9169122 -0.0020691156 -3.6258662 -4.453525 0.73938936
-1.418483 0.35385245 -0.8462044 -3.3472874 -0.08445849 -0.3146801 -0.30366504 -1.2008095
-1.6361345 -0.6246238 -1.4145211 1.3411628 0.07761676 0.015149876 0.3411245 -3.377709
-1.4015251 0.024464667 -0.8344322 -0.293934 -0.0087527335 0.92730194 -2.201889 -3.283922
1.1349828 -3.3635964 0.14660254 -1.2531719 -0.23909545 0.58647436 -2.1710658 -2.7038329
0.64578235 -2.8837655 -0.60067844 0.68242717 -0.30433455 -2.9360719 -1.2983047 -0.33128616
-1.2702351 -3.387834 -0.33491784 1.2102752 0.2777799 1.3006319 -2.469099 -2.4938807
-2.3420444 -3.2742748 -0.36447537 -0.6683322 0.10165748 1.1948062 -2.6193502 -0.17869508
-2.1015143 -1.4424337 -0.6658986 -0.46862063 -0.05585022 -0.24911173 0.3356671 -1.3869227
0.25733972 0.6613244 -3.3742166 -0.8604523 0.3025536 -1.2741095 0.32484514 -1.2458063
0.18701397 -4.4191356 -0.9047501 0.87587 0.20783165 0.07305554 -3.0926995 -0.50592446
-3.2512724 -2.466906 -0.55421525 0.88959664 0.07447398 -1.4628122 0.20677117 0.121418834
-3.7995014 0.98422056 -1.2193556 0.110806875 0.15946665 -0.5711248 -0.84446394 -1.1558161
0.010514987 -0.12402954 -0.9440612 -1.711428 -0.34149176 -4.3061028 0.3170098 0.1171637
-0.16842967 -0.77493477 -1.5661151 -1.1240815 0.29794016 0.3852484 -2.832713 -1.1910255
-2.1219902 0.75056684 -0.4086091 -0.4011051 0.044060618 -3.4535615 -3.3583586 0.8218675
-1.5840478 -2.8896174 -0.38596904 1.1499465 0.020379573 -2.6023278 -3.3945615 1.218198
-1.2232852 -0.4644742 -1.7515782 -0.07722033 0.114473216 -1.6467367 -1.246326 -0.0146429045
-0.6005222 -0.5008148 -2.1234868 -2.898363 -0.078849286 -1.0633545 -0.42510802 0.43981668
0.2578788 0.27813885 -1.3657519 -3.442823 0.112975 -0.6037732 -4.247004 0.0064845122
-3.0551574 0.39599782 -0.92799217 -0.97873074 0.30635223 -0.109558664 -3.8569257 0.07287154
0.5393042 -3.7207487 -0.50107425 -2.2836163 0.2850589 -1.9712423 -0.7882021 0.72772765
-0.5166262 -1.6887293 -2.4032347 0.18729925 -0.033060934 -1.6430389 0.81208175 -0.4121194
0.7296697 -4.446898 -1.9743451 -0.46601656 -0.07675006 0.16147596 0.028522808 -0.6353546
-0.32023737 0.09285908 -0.48402676 -1.217694 -0.26427338 -0.2920958 -0.15307894 -3.564935
-0.83738667 -2.5418415 -1.1408803 -1.691743 -0.09911001 0.013423151 -3.7920184 1.0460404
-3.3001165 0.28608152 -0.6419416 -0.42795256 0.24929115 -2.1910028 0.52343464 -0.38653067
1.3823596 -3.384892 -1.0562143 -2.1496277 0.27388933 -0.013572938 -3.7370648 -0.027604036

l3.bias f4 [29]
00000000: 9f16 8f3e e3e7 403f de49 8a3d 38a2 8e3d
00000010: 56e1 ebbe 174c 523e 3607 0cbe 4ec3 1e3f
00000020: 8585 733e b524 3dbf d2a2 d3be 9fb3 af3e
00000030: 4071 843e 917c 7d3e 2c21 b9be 7829 f2be
00000040: db6d 533f cb97 183f f4b6 55bf e675 2fbf
00000050: 9447 e6bd ed40 b43e bd79 e13d 1af1 7cbf
00000060: 3138 753d e141 25be 8c3b e23e 1565 71bf
00000070: 40dd 3f3e
0.27946946 0.7535383 0.0675237 0.069645345 -0.46070355 0.20536838 -0.13674626 0.6201676
0.23781402 -0.73884135 -0.4133516 0.34316728 0.25867653 0.2475455 -0.3615812 -0.47297263
0.825895 0.5960662 -0.8348229 -0.68539274 -0.11244121 0.35205784 0.11009548 -0.9880539
0.05986804 -0.16138412 0.44186056 -0.94294864 0.18736744
